sevennet_tutorial/train/from_scratch_result/checkpoint_100.pth (torch, 629435 bytes, 92 tensors)

edge_embedding.basis_function.coeffs f4 [8]
0.5046099 1.1185176 1.763353 2.6149192 3.1971195 3.8862877 4.5313244 5.4043207
00000000: 1d2e 013f 962b 8f3f 8db5 e13f d65a 2740
00000010: 9b9d 4c40 f0b8 7840 9c00 9140 32f0 ac40

onehot_to_feature_x.linear.weight f4 [64]
-1.9150518 2.1354096 -0.49420035 1.2262607 -0.7213106 1.1335009 -0.5776385 -0.9299856
0.9464513 1.1491108 0.31130615 0.2540817 -0.07997418 -1.3273731 -0.42871377 0.43292937
-1.4123555 0.94540125 -0.35169974 -1.4271373 0.552399 -0.62990755 -0.45773372 0.13679607
0.64690983 -1.2175967 -1.0487624 -2.8546302 -0.7836342 1.26285 -1.0582732 -0.55656904
-0.883429 0.2526773 -1.4002192 1.9141452 -1.3157192 -0.52161 1.070392 0.41415858
0.13386762 -1.8220526 -2.2168572 -2.4257474 -0.8748467 -0.2377006 0.58960193 0.5238012
-0.89740247 2.1621246 1.2261416 0.37557697 0.53902906 0.13475452 0.4383086 0.4744249
0.7577514 1.2718949 -0.93653935 -0.5059848 0.46672773 -0.42787495 1.5165454 2.058543
00000000: 6b20 f5bf 8daa 0840 d407 fdbe 1cf6 9c3f
00000010: d0a7 38bf 8f16 913f 1ee0 13bf 8913 6ebf
00000020: a24a 723f 1016 933f 8563 9f3e ff16 823e
00000030: 81c9 a3bd 5de7 a9bf 5f80 dbbe eba8 dd3e
00000040: 11c8 b4bf d105 723f fd11 b4be 6fac b6bf
00000050: 056a 0d3f 9f41 21bf 135c eabe 4514 0c3e
00000060: e29b 253f 35da 9bbf d93d 86bf 43b2 36c0
00000070: 409c 48bf 12a5 a13f 7f75 87bf 4f7b 0ebf
00000080: 6728 62bf eb5e 813e 623a b3bf b602 f53f
00000090: 7d69 a8bf 3c88 05bf 9b02 893f 980c d43e
000000a0: 9814 093e 0539 e9bf fde0 0dc0 723f 1bc0
000000b0: f4f5 5fbf c967 73be 27f0 163f d617 063f
000000c0: 2bbc 65bf 4060 0a40 35f2 9c3f a04b c03e
000000d0: cffd 093f 17fd 093e fc69 e03e d2e7 f23e
000000e0: fffb 413f 74cd a23f 0bc1 6fbf 3888 01bf
000000f0: f0f6 ee3e 6d12 dbbe 291e c23f 2bbf 0340

onehot_to_feature_x.linear.output_mask f4 [16]
1.0 1.0 1.0 1.0 1.0 1.0 1.0 1.0
1.0 1.0 1.0 1.0 1.0 1.0 1.0 1.0
00000000: 0000 803f 0000 803f 0000 803f 0000 803f
00000010: 0000 803f 0000 803f 0000 803f 0000 803f
00000020: 0000 803f 0000 803f 0000 803f 0000 803f
00000030: 0000 803f 0000 803f 0000 803f 0000 803f

0_self_connection_intro.linear.weight f4 [768]
-1.631961 -0.6534954 -0.7064227 -1.7851222 -0.15238102 -0.5963473 -0.9550297 -1.6856205
-0.68561095 0.4190271 -0.68963903 -0.17642061 -0.31832024 1.7910218 0.21547677 0.52573013
-1.6613424 -1.4388478 -0.4309889 -1.7855827 1.1025075 0.12109114 -1.5093414 0.8455301
1.1399682 -1.2520915 -3.2089534 -1.7235771 -0.38143626 -0.4135852 -0.96563834 -1.6073294
0.5936778 -0.7226378 -0.593315 -0.92366594 0.7805912 -0.2376649 -0.15224853 -0.92930585
-0.78421694 -0.551984 -0.644541 -0.49222767 2.3037267 -2.0868444 1.7155906 -1.4163538
-0.8338531 0.45326984 0.111225516 -0.26954475 0.822202 0.43666834 1.1331402 2.0123537
0.15482017 0.8137951 -0.25460914 -0.73555017 1.6271424 -0.9924059 -3.411698 -0.82357174
1.0570773 -0.8776359 0.81608933 0.8529913 -0.35489377 0.410113 2.5360668 0.06818129
-0.8511947 0.54329705 -0.14303604 -0.3819318 -0.0791386 -1.0653093 0.59979403 0.59858453
0.71877766 0.8565568 0.041298453 0.9976074 -1.7451223 -0.18732703 0.44109544 -0.045693997
0.5399334 0.3300942 -0.826791 1.3212674 -0.99235374 -0.029360846 0.42561868 2.5554574
0.4946253 1.0961775 0.8532837 -0.8587675 1.4855888 -0.813931 -1.1344635 0.98183495
1.4693235 0.53066987 -0.048827197 -0.25958008 -2.0271494 -0.76660556 -1.512466 -1.3740053
1.8487494 -1.1549975 2.6254504 1.4169472 0.3218623 0.7560313 1.073205 -0.7066748
2.333719 -0.41830492 -0.3492929 2.2958918 -2.582165 1.2143631 -0.917476 -0.40073198
1.6386513 -1.5739794 0.6945156 1.6313002 0.07916877 -1.9653853 0.9290853 -1.576978
-2.0131273 -2.467442 -0.11014454 0.37339246 2.4093704 -0.03242364 2.041876 -2.272638
-1.4826845 -0.76329786 1.5425351 0.8404362 0.40323764 -0.28542852 0.5780681 -1.6970544
0.5293712 0.1902517 0.2154277 1.2569177 1.6819397 2.0010543 -0.88215005 2.6862428
1.5549028 0.23539345 0.052592836 -1.9783806 -0.97528434 -0.70088786 1.8194492 2.0276885
1.5621969 3.219057 0.241334 -0.6903401 0.38867816 -1.5762236 -0.09514185 -0.64568484
2.7367635 1.0672215 1.9214153 2.4124198 -0.25498948 -0.37858972 -0.94112796 0.064003795
1.1075852 -0.8269612 1.4394542 3.0192719 0.23204644 -0.10444554 0.53285223 1.0832402
-0.46945035 0.6962803 1.8322053 -0.1660569 0.588396 -1.8890038 -3.0202966 -0.4718412
-0.4681134 0.78989553 -0.7479069 0.43290126 -1.4934915 -0.4698299 0.69938624 -0.1283972
1.479203 0.07398551 0.4894173 3.7950037 0.2642501 2.0816975 1.9117146 0.5364567
-1.972562 0.33520752 1.8816366 -0.9946477 -0.568924 -0.61864114 1.4262686 2.050837
2.0992608 -0.24980202 -0.3535243 -1.5882427 1.15406 1.812819 1.051698 -0.2370415
-0.08212984 0.6378798 -0.28699923 -2.867973 1.8177121 -1.5944972 -1.337217 -0.19105579
0.10242283 1.2120568 1.5168148 -0.14397669 -0.80008996 -0.056590315 -0.077800065 -0.123445734
0.5581318 -0.5213046 -0.43291178 1.0787472 -0.2423251 -1.0824713 -0.30879042 0.33333057
00000000: 19e4 d0bf 794b 27bf 1ed8 34bf e27e e4bf
00000010: c509 1cbe 37aa 18bf d47c 74bf 6ac2 d7bf
00000020: 3384 2fbf b88a d63e 2f8c 30bf 9ba7 34be
00000030: dffa a2be 3440 e53f f1a5 5c3e 4096 063f
00000040: dea6 d4bf 2a2c b8bf 94aa dcbe f98d e4bf
00000050: f71e 8d3f a2fe f73d 1932 c1bf a974 583f
00000060: 7aea 913f 8944 a0bf 7e5f 4dc0 2d9e dcbf
00000070: 9d4b c3be 70c1 d3be 1334 77bf f8bc cdbf
00000080: 45fb 173f cafe 38bf 7ee3 17bf 5f75 6cbf
00000090: d3d4 473f 6d5e 73be 0ae7 1bbe fde6 6dbf
000000a0: 71c2 48bf d34e 0dbf a400 25bf 4405 fcbe
000000b0: 4270 1340 dc8e 05c0 7998 db3f 154b b5bf
000000c0: 6677 55bf fc12 e83e 34ca e33d c501 8abe
000000d0: d57b 523f fe92 df3e bd0a 913f 67ca 0040
000000e0: 2e89 1e3e e054 503f 215c 82be 044d 3cbf
000000f0: 3446 d03f 500e 7ebf 4359 5ac0 99d5 52bf
00000100: 4f4e 873f bfac 60bf 3beb 503f a35d 5a3f
00000110: a3b4 b5be 55fa d13e eb4e 2240 a2a2 8b3d
00000120: e5e7 59bf 8415 0b3f 0a78 12be 918c c3be
00000130: 6b13 a2bd 0e5c 88bf 1a8c 193f d63c 193f
00000140: d001 383f 4e47 5b3f 9128 293d 3363 7f3f
00000150: 2b60 dfbf a8d2 3fbe 43d7 e13e a129 3bbd
00000160: 1339 0a3f 1b02 a93e 93a8 53bf 4a1f a93f
00000170: e50a 7ebf 2886 f0bc b1ea d93e 9d8c 2340
00000180: 873f fd3e 8b4f 8c3f cd70 5a3f 30d8 5bbf
00000190: c627 be3f c85d 50bf 1a36 91bf 8959 7b3f
000001a0: cb12 bc3f fbd9 073f 07ff 47bd aee7 84be
000001b0: d1bc 01c0 4340 44bf 7c98 c1bf 68df afbf
000001c0: d2a3 ec3f f5d6 93bf 6107 2840 875e b53f
000001d0: 23cb a43e 448b 413f c85e 893f a4e8 34bf
000001e0: a75b 1540 102c d6be 85d6 b2be e4ef 1240
000001f0: 3142 25c0 4070 9b3f b5df 6abf be2c cdbe
00000200: 53bf d13f 2878 c9bf c6cb 313f 72ce d03f
00000210: 3c23 a23d bf91 fbbf 89d8 6d3f 6ada c9bf
00000220: 14d7 00c0 92ea 1dc0 7693 e1bd 4c2d bf3e
00000230: 2033 1a40 a7ce 04bd 19ae 0240 e772 11c0
00000240: 9bc8 bdbf 7d67 43bf ca71 c53f d426 573f
00000250: 2a75 ce3e b023 92be 45fc 133f 1439 d9bf
00000260: df84 073f 57d1 423e 1499 5c3e aee2 a03f
00000270: cd49 d73f 4611 0040 96d4 61bf 67eb 2b40
00000280: 0e07 c73f fb0a 713e 966b 573d 933b fdbf
00000290: 3cac 79bf 636d 33bf b6e3 e83f a6c5 0140
000002a0: 11f6 c73f 0805 4e40 4320 773e 21ba 30bf
000002b0: d300 c73e b2c1 c9bf bbd9 c2bd 9a4b 25bf
000002c0: 2227 2f40 b79a 883f f0f0 f53f 1665 1a40
000002d0: fb8d 82be 83d6 c1be c3ed 70bf 6c14 833d
000002e0: 5ac5 8d3f bbb3 53bf 0940 b83f c03b 4140
000002f0: 959d 6d3e 8be7 d5bd 0169 083f 9da7 8a3f
00000300: cc5b f0be 6d3f 323f b485 ea3f d20a 2abe
00000310: 1fa1 163f e0ca f1bf 8a4c 41c0 2b95 f1be
00000320: 8fac efbe 9836 4a3f d476 3fbf 3ca5 dd3e
00000330: bb2a bfbf 8b8d f0be fa0a 333f 8e7a 03be
00000340: 8656 bd3f b785 973d e894 fa3e 57e1 7240
00000350: ca4b 873e 883a 0540 10b3 f43f 3a55 093f
00000360: e97c fcbf 52a0 ab3e 78d9 f03f 3ba1 7ebf
00000370: 01a5 11bf 445f 1ebf f88f b63f ea40 0340
00000380: 4a5a 0640 1acc 7fbe 2301 b5be 894b cbbf
00000390: 3db8 933f 740a e83f 0a9e 863f 02bb 72be
000003a0: b133 a8bd 174c 233f 90f1 92be df8c 37c0
000003b0: caaa e83f 7c18 ccbf ed29 abbf 21a4 43be
000003c0: 10c3 d13d ad24 9b3f fd26 c23f a06e 13be
000003d0: b2d2 4cbf 3fcb 67bd a455 9fbd 1ed1 fcbd
000003e0: bae1 0e3f 3874 05bf 9da6 ddbe 6314 8a3f
000003f0: 1224 78be 6b8e 8abf c719 9ebe 4eaa aa3e

0_self_connection_intro.linear.output_mask f4 [176]
1.0 1.0 1.0 1.0 1.0 1.0 1.0 1.0
1.0 1.0 1.0 1.0 1.0 1.0 1.0 1.0
1.0 1.0 1.0 1.0 1.0 1.0 1.0 1.0
1.0 1.0 1.0 1.0 1.0 1.0 1.0 1.0
1.0 1.0 1.0 1.0 1.0 1.0 1.0 1.0
1.0 1.0 1.0 1.0 1.0 1.0 1.0 1.0
0.0 0.0 0.0 0.0 0.0 0.0 0.0 0.0
0.0 0.0 0.0 0.0 0.0 0.0 0.0 0.0
0.0 0.0 0.0 0.0 0.0 0.0 0.0 0.0
0.0 0.0 0.0 0.0 0.0 0.0 0.0 0.0
0.0 0.0 0.0 0.0 0.0 0.0 0.0 0.0
0.0 0.0 0.0 0.0 0.0 0.0 0.0 0.0
0.0 0.0 0.0 0.0 0.0 0.0 0.0 0.0
0.0 0.0 0.0 0.0 0.0 0.0 0.0 0.0
0.0 0.0 0.0 0.0 0.0 0.0 0.0 0.0
0.0 0.0 0.0 0.0 0.0 0.0 0.0 0.0
0.0 0.0 0.0 0.0 0.0 0.0 0.0 0.0
0.0 0.0 0.0 0.0 0.0 0.0 0.0 0.0
0.0 0.0 0.0 0.0 0.0 0.0 0.0 0.0
0.0 0.0 0.0 0.0 0.0 0.0 0.0 0.0
0.0 0.0 0.0 0.0 0.0 0.0 0.0 0.0
0.0 0.0 0.0 0.0 0.0 0.0 0.0 0.0
00000000: 0000 803f 0000 803f 0000 803f 0000 803f
00000010: 0000 803f 0000 803f 0000 803f 0000 803f
00000020: 0000 803f 0000 803f 0000 803f 0000 803f
00000030: 0000 803f 0000 803f 0000 803f 0000 803f
00000040: 0000 803f 0000 803f 0000 803f 0000 803f
00000050: 0000 803f 0000 803f 0000 803f 0000 803f
00000060: 0000 803f 0000 803f 0000 803f 0000 803f
00000070: 0000 803f 0000 803f 0000 803f 0000 803f
00000080: 0000 803f 0000 803f 0000 803f 0000 803f
00000090: 0000 803f 0000 803f 0000 803f 0000 803f
000000a0: 0000 803f 0000 803f 0000 803f 0000 803f
000000b0: 0000 803f 0000 803f 0000 803f 0000 803f
000000c0: 0000 0000 0000 0000 0000 0000 0000 0000
000000d0: 0000 0000 0000 0000 0000 0000 0000 0000
000000e0: 0000 0000 0000 0000 0000 0000 0000 0000
000000f0: 0000 0000 0000 0000 0000 0000 0000 0000
00000100: 0000 0000 0000 0000 0000 0000 0000 0000
00000110: 0000 0000 0000 0000 0000 0000 0000 0000
00000120: 0000 0000 0000 0000 0000 0000 0000 0000
00000130: 0000 0000 0000 0000 0000 0000 0000 0000
00000140: 0000 0000 0000 0000 0000 0000 0000 0000
00000150: 0000 0000 0000 0000 0000 0000 0000 0000
00000160: 0000 0000 0000 0000 0000 0000 0000 0000
00000170: 0000 0000 0000 0000 0000 0000 0000 0000
00000180: 0000 0000 0000 0000 0000 0000 0000 0000
00000190: 0000 0000 0000 0000 0000 0000 0000 0000
000001a0: 0000 0000 0000 0000 0000 0000 0000 0000
000001b0: 0000 0000 0000 0000 0000 0000 0000 0000
000001c0: 0000 0000 0000 0000 0000 0000 0000 0000
000001d0: 0000 0000 0000 0000 0000 0000 0000 0000
000001e0: 0000 0000 0000 0000 0000 0000 0000 0000
000001f0: 0000 0000 0000 0000 0000 0000 0000 0000
00000200: 0000 0000 0000 0000 0000 0000 0000 0000
00000210: 0000 0000 0000 0000 0000 0000 0000 0000
00000220: 0000 0000 0000 0000 0000 0000 0000 0000
00000230: 0000 0000 0000 0000 0000 0000 0000 0000
00000240: 0000 0000 0000 0000 0000 0000 0000 0000
00000250: 0000 0000 0000 0000 0000 0000 0000 0000
00000260: 0000 0000 0000 0000 0000 0000 0000 0000
00000270: 0000 0000 0000 0000 0000 0000 0000 0000
00000280: 0000 0000 0000 0000 0000 0000 0000 0000
00000290: 0000 0000 0000 0000 0000 0000 0000 0000
000002a0: 0000 0000 0000 0000 0000 0000 0000 0000
000002b0: 0000 0000 0000 0000 0000 0000 0000 0000

0_self_interaction_1.linear.weight f4 [256]
0.36527646 -0.8112117 1.529985 1.005284 0.68024594 0.83982265 -0.8886844 0.70899
0.28227022 -1.8401785 0.94868493 -0.089250505 0.71164495 -0.5641563 0.85312855 2.322531
0.7202967 -0.7387774 -0.31050563 0.02480292 -0.88204074 -0.030448705 0.35288605 0.5335959
0.08591288 -0.25402448 -0.70912266 -0.10402257 0.8006985 -2.2219741 -1.095593 -2.6147015
0.63859975 -0.57820076 -1.2148662 0.13521649 -1.341548 -1.3985841 0.5896137 -0.49809152
0.51598203 0.11574935 -0.6317173 -0.92941123 -1.4306413 -0.3660224 -0.54894036 -0.15214245
1.1983927 -0.73306304 1.9352612 0.48815113 -0.16455063 -1.3040991 -0.1170751 1.0056641
2.203386 -0.5123762 -0.46765238 1.3764653 1.4347249 1.2736368 2.807448 -1.8045696
-0.42685565 -0.4568033 -0.58420116 0.4021231 0.03649882 0.30174595 2.1276186 1.8483344
-0.03666725 2.2097867 1.875441 1.825765 -0.37883762 0.3929127 -0.7417878 -1.9647695
2.0844038 -0.6520645 -1.4664001 0.4070663 -0.58492476 0.4055277 1.2112131 1.4984697
1.1300099 0.43011525 0.02808719 -1.6634353 -0.25322476 -0.33691716 2.595306 -0.5292528
1.2533189 -0.3465733 -0.5840687 0.2666806 -1.4735371 0.009788358 1.1823101 -0.7294827
0.591497 -1.2536987 -2.0834696 0.021592924 0.8336608 -0.20398228 0.43452245 -0.9758421
0.650779 1.0215355 -1.4155165 1.2694017 2.4185696 0.39041355 1.3599031 2.066186
1.670059 1.1758021 0.8215441 -1.0089586 -0.87924725 -0.40164292 -1.0174851 -2.5402741
1.5272379 -0.07273904 -1.1840317 -1.007883 0.7385705 0.39690068 0.70373166 0.49457452
0.71434397 1.2299688 -0.9095431 -0.8871525 -0.39321366 -0.6521622 -0.69807017 -0.24859029
0.3552105 -0.7954353 -0.9269157 -0.05493778 -0.73179775 -0.17913477 0.35628754 -0.022036871
0.97349083 0.24088465 0.4639943 0.41892213 -0.4421858 -1.83809 2.1918619 1.1599094
1.7116156 1.2054147 0.89581734 0.2783293 -1.6005261 0.6479834 -0.4238942 -1.1954262
-0.6987131 -1.0820081 1.6882452 -0.4142559 1.2059473 -1.215275 -1.0303981 -0.08843624
2.3788965 -0.2954425 1.1261688 -0.52026916 -1.0491709 1.8425316 -0.35864297 -0.19352613
1.457439 -1.3951155 -0.9510775 0.085247375 0.31519458 -0.6681795 1.3434561 1.4860605
1.3290468 -1.2711008 -1.2534811 0.24437436 -1.223082 -0.79899013 0.43976194 1.117036
0.12029619 -0.24525364 0.38772494 0.36673844 -0.23512016 -0.9593612 -0.07030155 -1.4229963
0.39411512 1.1662298 0.5933178 1.1080172 -1.1927518 0.20458226 0.69334054 -1.0673605
-2.0888178 -0.57285845 0.46780333 0.9477873 -1.6558924 -0.67736024 -1.3480467 1.9250389
0.42033637 -0.13476358 -0.3908958 -1.7531965 0.53670174 0.8341839 1.0547785 1.2510971
1.0963715 0.15443918 -1.1519427 -3.8396132 0.0683965 -1.5761282 1.0262563 1.4231237
3.2385466 -2.3572576 -2.3238196 -1.498683 2.1769714 0.11404322 0.30398378 1.7375622
0.78376395 -0.30017084 0.3040963 -1.3423376 -0.2574131 1.0359457 2.3986185 0.10497528
00000000: 8405 bb3e 92ab 4fbf 8cd6 c33f 25ad 803f
00000010: 9924 2e3f 9efe 563f d280 63bf 5e80 353f
00000020: b985 903e f88a ebbf 04dd 723f f8c8 b6bd
00000030: 5d2e 363f 8c6c 10bf a266 5a3f 59a4 1440
00000040: 5d65 383f 8420 3dbf 98fa 9ebe 7e2f cb3c
00000050: 6ccd 61bf 906f f9bc 7bad b43e be99 083f
00000060: 18f3 af3d 7f0f 82be 1089 35bf c909 d5bd
00000070: 94fa 4c3f d334 0ec0 643c 8cbf 4557 27c0
00000080: 467b 233f f704 14bf bc80 9bbf 3176 0a3e
00000090: d8b7 abbf ce04 b3bf ecf0 163f da05 ffbe
000000a0: 6617 043f ff0d ed3d 3ab8 21bf e5ed 6dbf
000000b0: 411f b7bf 4a67 bbbe 5b87 0cbf 3bcb 1bbe
000000c0: ef64 993f 05aa 3bbf a4b6 f73f f2ee f93e
000000d0: f67f 28be b8ec a6bf 12c5 efbd 9ab9 803f
000000e0: 4704 0d40 162b 03bf 2270 efbe 0430 b03f
000000f0: 11a5 b73f 8806 a33f 3aad 3340 23fc e6bf
00000100: d38c dabe 1fe2 e9be 358e 15bf 14e3 cd3e
00000110: c97f 153d 727e 9a3e e72a 0840 3996 ec3f
00000120: 6630 16bd 256d 0d40 730e f03f abb2 e93f
00000130: 01f7 c1be da2b c93e cee5 3dbf 917d fbbf
00000140: df66 0540 b3ed 26bf 00b3 bbbf fe6a d03e
00000150: a1bd 15bf 54a1 cf3e 0809 9b3f dbcd bf3f
00000160: 2aa4 903f 1138 dc3e 1b17 e63c 73eb d4bf
00000170: ada6 81be 6880 acbe 7e19 2640 1d7d 07bf
00000180: c16c a03f 0e72 b1be 8785 15bf 5c8a 883e
00000190: dd9c bcbf 595f 203c f055 973f 61bf 3abf
000001a0: 596c 173f 3379 a0bf 9157 05c0 a5e3 b03c
000001b0: cb6a 553f bbe0 50be ba79 de3e cad0 79bf
000001c0: 7499 263f adc1 823f a52f b5bf c17b a23f
000001d0: d8c9 1a40 49e4 c73e 4e11 ae3f 643c 0440
000001e0: 7ec4 d53f af80 963f b750 523f 8e25 81bf
000001f0: 5916 61bf 24a4 cdbe f43c 82bf da93 22c0
00000200: 887c c33f 35f8 94bd 5a8e 97bf 4f02 81bf
00000210: f512 3d3f 9136 cb3e c227 343f df38 fd3e
00000220: 3fdf 363f 9e6f 9d3f d1d7 68bf 6d1c 63bf
00000230: 4d53 c9be 1af4 26bf bab4 32bf 748e 7ebe
00000240: 27de b53e a6a1 4bbf 594a 6dbf 7006 61bd
00000250: 1957 3bbf 1b6f 37be 526b b63e ab86 b4bc
00000260: b236 793f 77aa 763e a990 ed3e f67c d63e
00000270: 2d66 e2be 8846 ebbf 7747 0c40 e977 943f
00000280: 3816 db3f 074b 9a3f 4954 653f 2e81 8e3e
00000290: 0ade ccbf 3de2 253f a908 d9be ba03 99bf
000002a0: ddde 32bf 3e7f 8abf 6b18 d83f 5919 d4be
000002b0: 7b5c 9a3f 228e 9bbf 16e4 83bf 0f1e b5bd
000002c0: d73f 1840 3d44 97be 4d26 903f 5c30 05bf
000002d0: 3b4b 86bf 13d8 eb3f 0da0 b7be b72b 46be
000002e0: 5c8d ba3f 2593 b2bf d179 73bf 2d96 ae3d
000002f0: 2f61 a13e d00d 2bbf 5ff6 ab3f 3b37 be3f
00000300: 351e aa3f 6eb3 a2bf 1272 a0bf 463d 7a3e
00000310: f38d 9cbf 9e8a 4cbf 7a28 e13e 09fb 8e3f
00000320: d95d f63d c523 7bbe e283 c63e 24c5 bb3e
00000330: 57c3 70be b298 75bf 42fa 8fbd be24 b6bf
00000340: 75c9 c93e 0547 953f ade3 173f 82d3 8d3f
00000350: 17ac 98bf 037e 513e c47e 313f 459f 88bf
00000360: 31af 05c0 daa6 12bf eb83 ef3e 30a2 723f
00000370: 48f4 d3bf 7b67 2dbf cb8c acbf ad67 f63f
00000380: 5436 d73e 77ff 09be 7f23 c8be be68 e0bf
00000390: 4965 093f 138d 553f fb02 873f f323 a03f
000003a0: e755 8c3f 4e25 1e3e dc72 93bf 39bc 75c0
000003b0: 7713 8c3d 92be c9bf 5e5c 833f eb28 b63f
000003c0: 5944 4f40 4fdd 16c0 76b9 14c0 d8d4 bfbf
000003d0: 8053 0b40 7e8f e93d c3a3 9b3e 7068 de3f
000003e0: c1a4 483f feaf 99be 83b2 9b3e b8d1 abbf
000003f0: a6cb 83be de99 843f f782 1940 48fd d63d

0_self_interaction_1.linear.output_mask f4 [16]
1.0 1.0 1.0 1.0 1.0 1.0 1.0 1.0
1.0 1.0 1.0 1.0 1.0 1.0 1.0 1.0
00000000: 0000 803f 0000 803f 0000 803f 0000 803f
00000010: 0000 803f 0000 803f 0000 803f 0000 803f
00000020: 0000 803f 0000 803f 0000 803f 0000 803f
00000030: 0000 803f 0000 803f 0000 803f 0000 803f

0_convolution.convolution.output_mask f4 [144]
1.0 1.0 1.0 1.0 1.0 1.0 1.0 1.0
1.0 1.0 1.0 1.0 1.0 1.0 1.0 1.0
1.0 1.0 1.0 1.0 1.0 1.0 1.0 1.0
1.0 1.0 1.0 1.0 1.0 1.0 1.0 1.0
1.0 1.0 1.0 1.0 1.0 1.0 1.0 1.0
1.0 1.0 1.0 1.0 1.0 1.0 1.0 1.0
1.0 1.0 1.0 1.0 1.0 1.0 1.0 1.0
1.0 1.0 1.0 1.0 1.0 1.0 1.0 1.0
1.0 1.0 1.0 1.0 1.0 1.0 1.0 1.0
1.0 1.0 1.0 1.0 1.0 1.0 1.0 1.0
1.0 1.0 1.0 1.0 1.0 1.0 1.0 1.0
1.0 1.0 1.0 1.0 1.0 1.0 1.0 1.0
1.0 1.0 1.0 1.0 1.0 1.0 1.0 1.0
1.0 1.0 1.0 1.0 1.0 1.0 1.0 1.0
1.0 1.0 1.0 1.0 1.0 1.0 1.0 1.0
1.0 1.0 1.0 1.0 1.0 1.0 1.0 1.0
1.0 1.0 1.0 1.0 1.0 1.0 1.0 1.0
1.0 1.0 1.0 1.0 1.0 1.0 1.0 1.0
00000000: 0000 803f 0000 803f 0000 803f 0000 803f
00000010: 0000 803f 0000 803f 0000 803f 0000 803f
00000020: 0000 803f 0000 803f 0000 803f 0000 803f
00000030: 0000 803f 0000 803f 0000 803f 0000 803f
00000040: 0000 803f 0000 803f 0000 803f 0000 803f
00000050: 0000 803f 0000 803f 0000 803f 0000 803f
00000060: 0000 803f 0000 803f 0000 803f 0000 803f
00000070: 0000 803f 0000 803f 0000 803f 0000 803f
00000080: 0000 803f 0000 803f 0000 803f 0000 803f
00000090: 0000 803f 0000 803f 0000 803f 0000 803f
000000a0: 0000 803f 0000 803f 0000 803f 0000 803f
000000b0: 0000 803f 0000 803f 0000 803f 0000 803f
000000c0: 0000 803f 0000 803f 0000 803f 0000 803f
000000d0: 0000 803f 0000 803f 0000 803f 0000 803f
000000e0: 0000 803f 0000 803f 0000 803f 0000 803f
000000f0: 0000 803f 0000 803f 0000 803f 0000 803f
00000100: 0000 803f 0000 803f 0000 803f 0000 803f
00000110: 0000 803f 0000 803f 0000 803f 0000 803f
00000120: 0000 803f 0000 803f 0000 803f 0000 803f
00000130: 0000 803f 0000 803f 0000 803f 0000 803f
00000140: 0000 803f 0000 803f 0000 803f 0000 803f
00000150: 0000 803f 0000 803f 0000 803f 0000 803f
00000160: 0000 803f 0000 803f 0000 803f 0000 803f
00000170: 0000 803f 0000 803f 0000 803f 0000 803f
00000180: 0000 803f 0000 803f 0000 803f 0000 803f
00000190: 0000 803f 0000 803f 0000 803f 0000 803f
000001a0: 0000 803f 0000 803f 0000 803f 0000 803f
000001b0: 0000 803f 0000 803f 0000 803f 0000 803f
000001c0: 0000 803f 0000 803f 0000 803f 0000 803f
000001d0: 0000 803f 0000 803f 0000 803f 0000 803f
000001e0: 0000 803f 0000 803f 0000 803f 0000 803f
000001f0: 0000 803f 0000 803f 0000 803f 0000 803f
00000200: 0000 803f 0000 803f 0000 803f 0000 803f
00000210: 0000 803f 0000 803f 0000 803f 0000 803f
00000220: 0000 803f 0000 803f 0000 803f 0000 803f
00000230: 0000 803f 0000 803f 0000 803f 0000 803f

0_convolution.weight_nn.layer0.weight f4 [8, 64]
-1.5878031 -0.0137415305 1.0466188 -0.030726144 0.82800317 -1.5575384 -3.0347815 -0.5895892
-0.73573184 1.0981834 -0.26996738 1.7207656 0.59693533 -1.1355445 0.8143384 0.8242191
-0.22962472 -0.2293845 -0.6646525 -0.15852623 3.1439352 -1.5791272 -0.4842021 0.5974414
0.32640427 -1.565025 0.21289286 0.40299198 -2.1726775 1.1879927 -0.56271625 1.8314061
1.287141 0.023383074 -1.300598 0.6611767 -0.6921247 -1.6644708 -0.18088157 0.44940275
1.3491967 1.8138804 -0.34809604 3.962621 -0.26879787 0.42711467 0.5094128 -1.3657327
-2.0176842 -1.4701577 -1.4935054 -1.2161446 1.6252363 -1.4059278 0.46110868 1.6472297
-1.1376804 3.2418454 1.7630864 1.9042389 1.594547 2.1351297 -0.78490025 -0.38762543
-0.15982981 -0.7988894 1.650636 -1.3908162 -0.703653 0.6673223 1.1342692 -2.4746583
-1.1034957 0.30554858 0.6526489 0.12030083 -2.8006732 -0.1274093 1.0647093 -0.22821051
1.2131507 1.0024948 0.05032719 0.9419741 0.46030894 -0.7308134 0.872461 0.22228391
0.012544231 1.6169991 0.61088014 0.12171163 -0.09973913 0.896161 0.5339558 -1.5896239
-1.5238953 -2.02334 -1.4486929 0.05263527 1.5817379 -2.092069 -0.1436201 0.92960507
-0.40228507 -0.555371 -0.17258912 0.04029886 1.1691549 -1.3542064 0.3822147 0.441255
-0.87004805 0.13595195 0.5545786 1.2014972 -0.14618516 0.19988978 -0.6884543 0.10685796
0.2569927 -0.38915262 -1.4836324 -1.567737 -3.4091895 -1.1441057 2.4086046 1.8077469
1.1412456 2.4808934 -1.4524603 -1.0326807 -0.25782087 0.47717163 -0.110405415 -0.20857397
-0.0752817 1.7044754 0.9353144 -0.19223593 -0.20207462 -1.0373865 1.2538353 -1.0803748
-1.6945931 -0.7229603 2.124923 1.2681544 -3.0029306 2.1736274 -0.4537892 0.28537658
-1.1914229 -1.8177819 -0.09637115 -2.2528732 -0.5253961 0.31892917 -0.37542942 -1.2863541
-0.8795875 -1.9943807 -1.5421462 0.24329396 1.3578708 1.349121 0.38366875 -0.1706116
-1.7499084 1.6876898 -0.36618808 -0.8960394 0.46064687 -1.8576238 -0.23299538 -2.192543
-3.810197 1.9259309 1.1162378 -0.67897415 0.20970862 1.0306082 -1.9913961 -0.9547265
0.033485353 0.1934457 -0.0035212736 0.20249896 0.591809 -1.7769526 -1.6590521 0.17471695
0.9855446 -0.14653535 0.25011322 0.23637822 -0.47501564 -1.5879145 -1.5235343 1.1446637
-0.69280255 0.0006008887 -0.17597452 0.04775446 3.2913783 2.2021995 0.5631408 0.50109106
0.27585584 -0.65836704 -1.0054917 1.7234484 0.747851 0.07699485 -1.5797162 2.387153
1.7217188 0.2482371 1.1138859 -0.32222524 0.06748207 1.6019006 -0.52915835 -0.36110651
-1.1721921 0.88090694 0.8087211 -0.12337901 -1.7057862 -0.028118065 -0.24903403 0.089058764
0.9546023 -0.07266038 0.7245606 3.1227903 0.07923655 0.027689045 -1.1198704 1.9226515
-0.3480216 0.13338156 -2.543348 3.131883 3.4091277 -1.915292 -0.4187762 0.83276457
-1.1989388 -0.38526547 -0.41342154 2.2187037 0.25515085 0.62949604 0.23529337 1.2820778
00000000: 223d cbbf 2824 61bc 9bf7 853f 65b5 fbbc
00000010: 04f8 533f 6b5d c7bf dc39 42c0 51ef 16bf
00000020: ec58 3cbf 4691 8c3f 2a39 8abe 0c42 dc3f
00000030: c1d0 183f 8659 91bf 7b78 503f 0600 533f
00000040: be22 6bbe c5e3 6abe ab26 2abf b354 22be
00000050: 3c36 4940 d720 cabf 56e9 f7be ebf1 183f
00000060: 761e a73e bd52 c8bf 9600 5a3e f754 ce3e
00000070: 260d 0bc0 2510 983f 2c0e 10bf 846b ea3f
00000080: 09c1 a43f dc8d bf3c ff79 a6bf e042 293f
00000090: 162f 31bf 610d d5bf 0539 39be 1e18 e63e
000000a0: 7ab2 ac3f 3c2d e83f a539 b2be 959b 7d40
000000b0: e09f 89be c6ae da3e e168 023f 54d0 aebf
000000c0: bd21 01c0 212e bcbf 2f2b bfbf a0aa 9bbf
000000d0: be07 d03f 71f5 b3bf 7016 ec3e 6cd8 d23f
000000e0: 839f 91bf 657a 4f40 d1ac e13f 1abe f33f
000000f0: 1e1a cc3f f7a5 0840 39ef 48bf d776 c6be
00000100: 6daa 23be 0484 4cbf 0a48 d33f 4406 b2bf
00000110: 9a22 34bf a2d5 2a3f bc2f 913f cd60 1ec0
00000120: 593f 8dbf dd70 9c3e 0014 273f 4860 f63d
00000130: 3b3e 33c0 9577 02be 6548 883f 04b0 69be
00000140: 8648 9b3f c051 803f e223 4e3d 3725 713f
00000150: 9dad eb3e 9616 3bbf 9b59 5f3f 659e 633e
00000160: 5186 4d3c d4f9 ce3f a462 1c3f f243 f93d
00000170: 0744 ccbd cf6a 653f 54b1 083f cc78 cbbf
00000180: 000f c3bf 677e 01c0 c56e b9bf 1598 573d
00000190: 6376 ca3f 75e4 05c0 2611 13be 99fa 6d3f
000001a0: 4ff8 cdbe cb2c 0ebf 34bb 30be 6b10 253d
000001b0: dea6 953f a356 adbf a5b1 c33e 2dec e13e
000001c0: 78bb 5ebf fd36 0b3e ddf8 0d3f a9ca 993f
000001d0: 90b1 15be e8af 4c3e 8a3e 30bf 59d8 da3d
000001e0: 8c94 833e 033f c7be abe7 bdbf 9bab c8bf
000001f0: 2930 5ac0 0e72 92bf 9426 1a40 4064 e73f
00000200: 5614 923f f5c6 1e40 38ea b9bf e22e 84bf
00000210: 1901 84be d74f f43e 3c1c e2bd 6a94 55be
00000220: 4b2d 9abd 402c da3f c470 6f3f 7fd9 44be
00000230: a6ec 4ebe 15c9 84bf ad7d a03f b949 8abf
00000240: 6de8 d8bf ed13 39bf bdfe 0740 e252 a23f
00000250: 0430 40c0 b61c 0b40 0f57 e8be e11c 923e
00000260: 8c80 98bf 14ad e8bf 3d5e c5bd 132f 10c0
00000270: 5c80 06bf af4a a33e 4938 c0be 40a7 a4bf
00000280: a52c 61bf de47 ffbf 0c65 c5bf 0d22 793e
00000290: b6ce ad3f ffaf ac3f 3b70 c43e cfb4 2ebe
000002a0: 00fd dfbf 3806 d83f 017d bbbe d762 65bf
000002b0: e8d9 eb3e 9ec6 edbf 5796 6ebe a052 0cc0
000002c0: 45da 73c0 e784 f63f e1e0 8e3f 40d1 2dbf
000002d0: dbbd 563e f8ea 833f 11e6 febf f568 74bf
000002e0: f027 093d a116 463e 2bc5 66bb e35b 4f3e
000002f0: cb80 173f 2f73 e3bf d25b d4bf 00e9 323e
00000300: a74c 7c3f 5d0d 16be d70e 803e 220d 723e
00000310: 4035 f3be c840 cbbf 2c03 c3bf 5784 923f
00000320: 825b 31bf f584 1d3a aa32 34be 2e9a 433d
00000330: f1a5 5240 d6f0 0c40 ff29 103f 8147 003f
00000340: fa3c 8d3e be8a 28bf f4b3 80bf f599 dc3f
00000350: 2a73 3f3f 7aaf 9d3d 2434 cabf 1dc7 1840
00000360: 4861 dc3f de31 7e3e d093 8e3f b5fa a4be
00000370: 0a34 8a3d 140b cd3f ec76 07bf f4e2 b8be
00000380: 640a 96bf 1e83 613f 5908 4f3f 22ae fcbd
00000390: 3457 dabf db57 e6bc c702 7fbe 7164 b63d
000003a0: d160 743f f7ce 94bd ce7c 393f ccdb 4740
000003b0: c646 a23d 23d4 e23c ea57 8fbf 7219 f63f
000003c0: e32f b2be 2d95 083e 37c6 22c0 c570 4840
000003d0: 262f 5a40 4a28 f5bf d669 d6be 0f30 553f
000003e0: d476 99bf 8441 c5be fdab d3be 3eff 0d40
000003f0: 22a3 823e a726 213f bff0 703e 201b a43f

0_convolution.weight_nn.layer1.weight f4 [64, 64]
-1.5595403 -1.0787722 0.9666783 -1.5183028 0.96674925 0.05203993 -2.05175 0.14925854
-0.29891628 -0.48307076 -0.8384059 -0.019063257 -1.5292562 -0.020740503 -0.30530965 -0.63439816
0.34044957 -0.7702874 -1.1108372 0.7607169 -0.823156 1.0378748 -0.6179077 0.9852748
0.8289531 -1.1299235 2.9830906 -1.3789774 0.9157914 -0.42723903 1.4876144 0.6670003
0.5527414 -1.2464823 -1.0649252 1.5639747 -0.39457676 2.2045703 1.4627148 0.41907796
1.1828372 -0.19498922 -0.0981369 1.3384917 0.06850011 -1.3444357 0.3226798 0.09880477
-0.058776096 0.0468536 1.0734159 -0.27586773 0.9030188 2.0763729 0.19873023 -1.7009642
-1.6275121 -0.0520791 0.8466845 -0.73248357 -0.25076035 -0.47407988 -0.8236331 1.229616
0.18217169 -0.15506662 0.75370353 -1.4642624 0.6756931 1.6418833 -1.6945808 -1.3459417
0.5529969 0.10141059 0.04630428 0.66819835 0.9727444 -0.75298756 -1.2109529 -0.23830865
1.7982497 -1.496024 -0.2748768 -0.06851967 1.4109311 -0.81844217 2.31786 1.6698865
0.6671687 1.3438019 1.141696 1.3562274 2.8377087 0.29087716 0.7342195 -0.20635109
-2.3246722 1.4394788 0.09152177 2.15666 2.1704454 0.21086712 -0.3988516 0.28526396
0.2177789 1.1968114 1.3373282 -0.42660365 -1.2542546 0.5888383 0.40014413 1.622076
-0.41863838 0.18099752 -0.033443257 1.2261243 0.565124 0.044835165 0.07320899 -0.38901728
0.0063426644 1.962563 0.24058151 1.6399331 -0.23234093 1.2211226 -0.60646254 1.0665106
-0.00792586 -0.4820136 -0.023286479 1.9580288 0.19839069 -0.36991113 -0.27561042 -0.121536955
-0.05570818 -1.7735039 -1.1073185 0.7103759 0.014072819 0.21749175 -0.37616143 -0.73977935
0.5730813 -1.0309719 1.5856434 -2.099443 1.0991391 0.5236848 -0.09299603 0.20704281
-1.5488582 -0.42069432 -0.004276581 0.47701547 -0.027985407 2.473828 -2.1536648 0.8984329
0.5854423 -1.019691 -1.3081546 -0.3523656 -0.12649272 -1.7350043 -0.85015064 -1.681765
1.7717415 0.7719526 -0.11723334 -0.46715644 0.23898841 0.6057174 1.0071504 0.27676848
1.4803001 -0.17708215 -0.7743164 -1.1252775 -1.0269575 0.44521132 -0.10557267 -1.9547651
0.88997 0.6420521 0.37454247 0.01800949 1.364491 0.47126195 1.7781284 0.24357106
-0.4500448 1.2306775 1.0925199 0.5112239 -1.7596225 -0.34960622 -0.7458827 0.97485954
2.4428897 -1.427048 -0.7770774 -0.30273533 1.0188563 0.88126445 0.63920605 1.3002558
-1.127312 1.0893219 -1.3624325 -1.0709132 -0.49020725 -0.6800988 -1.0846169 0.73103946
0.1924658 0.68400276 0.18999091 1.1461078 1.5330064 1.4733522 0.6872172 1.1764001
0.7888307 1.044765 1.2218802 -1.8821492 1.5476114 1.3413801 -0.89671546 -0.41086784
0.68379396 -1.3586662 -0.29665118 0.9081926 -1.0433204 -0.75914323 0.46328694 1.1393954
0.9447537 -0.7173775 -0.73528284 -0.94088626 -0.2331304 -0.14948626 -1.7885805 -1.0410624
-0.22675918 1.4948791 -0.20075199 0.50929064 0.904569 2.267227 -0.042867426 -1.1467505
00000000: 049f c7bf 3515 8abf 3b78 773f bf57 c2bf
00000010: e17c 773f d227 553d df4f 03c0 3bd7 183e
00000020: 8e0b 99be 0d55 f7be c5a1 56bf 8c2a 9cbc
00000030: abbe c3bf fde7 a9bc 8c51 9cbe eb67 22bf
00000040: 684f ae3e 8e31 45bf ea2f 8ebf 58be 423f
00000050: 5aba 52bf 15d9 843f 332f 1ebf f83a 7c3f
00000060: 4536 543f 55a1 90bf f5ea 3e40 5582 b0bf
00000070: 4e71 6a3f 13bf dabe 266a be3f 88c0 2a3f
00000080: 7680 0d3f bb8c 9fbf 784f 88bf 5330 c83f
00000090: f705 cabe ae17 0d40 3d3a bb3f 6391 d63e
000000a0: 3667 973f 41ab 47be 00fc c8bd b253 ab3f
000000b0: c949 8c3d 7816 acbf 4936 a53e 285a ca3d
000000c0: 34bf 70bd 8fe9 3f3d b165 893f 893e 8dbe
000000d0: 3d2c 673f 4be3 0440 f07f 4b3e 32b9 d9bf
000000e0: 5152 d0bf e550 55bd 51c0 583f 0b84 3bbf
000000f0: a963 80be 99ba f2be 9ed9 52bf 0f64 9d3f
00000100: 378b 3a3e c9c9 1ebe b7f2 403f f36c bbbf
00000110: 39fa 2c3f 3b29 d23f 06e8 d8bf d147 acbf
00000120: 3491 0d3f 5bb0 cf3d 8fa9 3d3d 0c0f 2b3f
00000130: c705 793f cbc3 40bf 8100 9bbf 2f07 74be
00000140: 0c2d e63f b77d bfbf a7bc 8cbe 0a54 8cbd
00000150: 6499 b43f 6d85 51bf d157 1440 d7be d53f
00000160: 91cb 2a3f b301 ac3f 1823 923f dc98 ad3f
00000170: 059d 3540 daed 943e cff5 3b3f b34d 53be
00000180: 6ec7 14c0 d740 b83f c46f bb3d b806 0a40
00000190: 94e8 0a40 8ded 573e 4736 ccbe 1e0e 923e
000001a0: 6f01 5f3e 1e31 993f 922d ab3f cb6b dabe
000001b0: 6a8b a0bf 1bbe 163f b1df cc3e 30a0 cf3f
000001c0: c557 d6be 6a57 393e ccfb 08bd a4f1 9c3f
000001d0: f7ab 103f 14a5 373d 98ee 953d 462d c7be
000001e0: 20d6 cf3b 4435 fb3f 005b 763e 54e9 d13f
000001f0: c8ea 6dbe bf4d 9c3f 2141 1bbf 6b83 883f
00000200: 77db 01bc 7dca f6be 49c3 bebc b0a0 fa3f
00000210: ee26 4b3e fe64 bdbe cf1c 8dbe 5ee8 f8bd
00000220: 432e 64bd 2d02 e3bf 9dbc 8dbf 32db 353f
00000230: ae91 663c 28b6 5e3e 3b98 c0be 2e62 3dbf
00000240: 75b5 123f e3f6 83bf 5df6 ca3f 465d 06c0
00000250: 97b0 8c3f 3510 063f b474 bebd 0803 543e
00000260: fc40 c6bf 3f65 d7be 9022 8cbb 5f3b f43e
00000270: a741 e5bc 3353 1e40 a5d5 09c0 b3ff 653f
00000280: 8cdf 153f 3c85 82bf 9c71 a7bf 4469 b4be
00000290: 4f87 01be 9f14 debf 79a3 59bf 1344 d7bf
000002a0: 6dc8 e23f b09e 453f 0918 f0bd 212f efbe
000002b0: 61b9 743e 4c10 1b3f 4eea 803f 99b4 8d3e
000002c0: 797a bd3f 0655 35be 9939 46bf 1809 90bf
000002d0: 5873 83bf bdf2 e33e 7c36 d8bd be35 fabf
000002e0: 13d5 633f 875d 243f 08c4 bf3e a388 933c
000002f0: a4a7 ae3f 3f49 f13e b699 e33f b16a 793e
00000300: 466c e6be d786 9d3f b1d7 8b3f 92df 023f
00000310: 4f3b e1bf 96ff b2be 2bf2 3ebf 6590 793f
00000320: 4e58 1c40 82a9 b6bf 8bee 46bf 2000 9bbe
00000330: e269 823f 8c9a 613f 02a3 233f c86e a63f
00000340: c24b 90bf e66e 8b3f 3064 aebf af13 89bf
00000350: 72fc fabe f41a 2ebf bad4 8abf 6725 3b3f
00000360: c115 453e ce1a 2f3f fa8c 423e a9b3 923f
00000370: 8e39 c43f ce96 bc3f 77ed 2f3f 4794 963f
00000380: cff0 493f dcba 853f 9266 9c3f 44ea f0bf
00000390: 2118 c63f 58b2 ab3f 258f 65bf 455d d2be
000003a0: 1f0d 2f3f c6e8 adbf aae2 97be 4f7f 683f
000003b0: 868b 85bf 3657 42bf f233 ed3e b5d7 913f
000003c0: 61db 713f 0da6 37bf 7f3b 3cbf ecdd 70bf
000003d0: bcb9 6ebe ed12 19be 35f0 e4bf 8841 85bf
000003e0: 8f33 68be 3358 bf3f ee91 4dbe df60 023f
000003f0: d591 673f 3f1a 1140 c195 2fbd b8c8 92bf

0_convolution.weight_nn.layer2.weight f4 [64, 48]
-0.815898 0.47934684 0.94932693 1.0390415 2.2425194 -0.040588845 -0.053864606 1.0371635
-1.1982048 1.8681164 -0.59843373 -0.06378738 -0.8142342 1.5213438 1.6887395 -1.9139968
-2.0514815 1.1193191 0.5597689 -1.2029147 -1.6623983 -0.8915522 -0.23813154 0.6508738
-0.9299024 -0.1003917 2.7381136 1.4141351 0.10222375 -0.71899337 -1.2372546 -2.4239576
-0.46047187 0.74095 -1.370998 0.8675541 -1.1013993 -1.381239 -0.6045641 -1.0404907
-0.7301347 0.6292694 1.821818 -0.6346438 2.332265 -0.48296046 0.28803846 -0.2732701
-0.91571957 -1.4356067 -1.0207804 0.68435353 -1.9124842 -0.89990497 -0.9125413 -0.3304703
-0.53725547 -0.06355936 -1.5294875 -2.6947691 -0.9568899 0.365593 -2.1692176 -0.77560633
0.92745286 1.4474382 0.4573419 0.21918277 0.50782454 -0.16507937 -2.7991362 -0.50089467
0.68966544 -0.018356195 -0.0016205296 -1.4469821 -0.88669246 1.8114536 -0.45108762 1.3587787
-1.4989077 1.8891674 1.3240014 -0.76663756 -0.5907561 0.08204638 -0.19444703 -1.0530769
-1.2282476 -0.15338461 -1.6618351 1.2963734 -1.7608721 -0.772784 2.5742888 -0.627967
-0.25700986 1.9578228 0.056109805 -0.73181635 -0.036181916 -2.2487085 -0.51283765 -0.2694608
0.12090664 0.18200791 1.6407814 1.050089 -1.4576395 0.18257108 -1.41862 1.6629877
0.12591651 0.14419442 -0.13711677 -0.33955652 2.7549102 0.09379969 1.2784805 -1.9629761
-0.22515276 -2.4784205 -1.6098506 -0.84273 0.8588905 -0.629531 -0.15672056 0.9424134
1.1587367 -2.1926055 -0.4657295 0.621646 -1.4685017 -2.0833228 1.1643125 -0.24760592
0.99344164 -1.3627653 0.19490512 -0.10877184 0.31421837 -0.4757832 0.45784405 -0.01122692
-1.4024289 -0.97093534 0.069524415 -0.11356884 -0.42796564 -0.16459222 -1.0155699 -0.37724063
4.195511 -1.9533336 -0.9892065 0.55667055 -0.47115603 -2.0646255 -0.3270889 1.5638891
-0.29312927 -0.78331214 0.06926183 -2.2840734 0.020623252 -1.5404366 -1.4062979 0.16998616
0.93763053 1.5669668 0.47412148 0.03929675 0.86271715 1.861588 0.21977536 0.13501371
0.6452793 0.16751513 0.8100176 1.2379763 0.7348444 2.1159585 -0.11845883 0.31899017
0.5844573 -0.5377271 -0.16082188 -0.48597482 0.07786856 -0.8962873 -0.3049734 0.4919038
-0.6446598 -0.34034398 0.9537973 1.0845733 1.6269745 0.25508466 0.9636877 0.82617724
-0.54784405 1.0961492 -0.5465717 1.7949014 -0.6539261 0.32755676 1.0151167 1.1602894
-0.030189388 0.6129922 -0.641383 0.0932149 -0.13329919 0.58348536 -0.97175205 -1.3905035
-1.4817702 0.2402536 -0.3436054 -0.23921674 -2.0133038 2.955673 -3.258557 -2.0631757
-0.7149529 -0.68461585 0.34587175 0.86390257 0.4198479 1.1542741 0.89913607 -0.24926664
0.7243622 -0.6477552 0.54379344 -0.6052941 0.38888738 -0.6873599 -1.3356438 -0.37075543
0.92702687 1.943394 -0.36517376 -0.14712876 -0.59561884 -0.9904255 0.72586 -0.5254411
0.19800802 2.4728055 -0.10596796 -0.2878876 1.468381 -1.0475236 -2.443715 0.3293993
00000000: b1de 50bf f36c f53e 1707 733f 50ff 843f
00000010: 7085 0f40 7d40 26bd 22a1 5cbd c6c1 843f
00000020: c65e 99bf 701e ef3f f432 19bf f5a2 82bd
00000030: a771 50bf 65bb c23f 9e28 d83f d9fd f4bf
00000040: 794b 03c0 d945 8f3f 044d 0f3f 1cf9 99bf
00000050: 78c9 d4bf c43c 64bf c1d8 73be aa9f 263f
00000060: 150e 6ebf 2a9a cdbd 413d 2f40 6102 b53f
00000070: af5a d13d f30f 38bf 5c5e 9ebf 1f22 1bc0
00000080: f8c2 ebbe e6ae 3d3f dd7c afbf 0718 5e3f
00000090: a7fa 8cbf 71cc b0bf b6c4 1abf cd2e 85bf
000000a0: 1cea 3abf cd17 213f 5531 e93f 0478 22bf
000000b0: d443 1540 9846 f7be c779 933e 0fea 8bbe
000000c0: 996c 6abf f6c1 b7bf efa8 82bf cb31 2f3f
000000d0: 48cc f4bf 2c60 66bf 4e9c 69bf 6733 a9be
000000e0: 9389 09bf 692b 82bd 3fc6 c3bf 1977 2cc0
000000f0: bdf6 74bf 012f bb3e 76d4 0ac0 238e 46bf
00000100: 8d6d 6d3f a845 b93f b828 ea3e 7371 603e
00000110: ca00 023f 910a 29be 0c25 33c0 a23a 00bf
00000120: ea8d 303f bb5f 96bc f367 d4ba b636 b9bf
00000130: 47fe 62bf b6dd e73f f5f4 e6be 76ec ad3f
00000140: 35dc bfbf 3dd0 f13f e178 a93f 5c42 44bf
00000150: cb3b 17bf ef07 a83d 1f1d 47be 39cb 86bf
00000160: 3837 9dbf db10 1dbe 03b7 d4bf 90ef a53f
00000170: 4264 e1bf 2cd5 45bf 26c1 2440 72c2 20bf
00000180: cc96 83be f099 fa3f 65d3 653d 5158 3bbf
00000190: 7d33 14bd d7ea 0fc0 5449 03bf c4f6 89be
000001a0: e79d f73d 4860 3a3e 2005 d23f 5169 863f
000001b0: ee93 babf eaf3 3a3e 5795 b5bf c8dc d43f
000001c0: 42f0 003e b4a7 133e 5768 0cbe 5ada adbe
000001d0: 7350 3040 0d1a c03d 40a5 a33f cd42 fbbf
000001e0: 728e 66be 719e 1ec0 960f cebf 27bd 57bf
000001f0: 3fe0 5b3f f228 21bf 5b7b 20be 0142 713f
00000200: 7c51 943f a653 0cc0 1974 eebe 3124 1f3f
00000210: ddf7 bbbf 2955 05c0 3108 953f 688c 7dbe
00000220: 3152 7e3f 186f aebf 3595 473e c5c3 debd
00000230: 3be1 a03e db99 f3be 896a ea3e 1ef1 37bc
00000240: ca82 b3bf 388f 78bf d162 8e3d c896 e8bd
00000250: 501e dbbe dd8a 28be 32fe 81bf af25 c1be
00000260: a041 8640 d606 fabf a33c 7dbf f681 0e3f
00000270: 5d3b f1be d322 04c0 3278 a7be 852d c83f
00000280: 0a15 96be 2587 48bf 25d9 8d3d 422e 12c0
00000290: 18f2 a83c 072d c5bf 9201 b4bf da10 2e3e
000002a0: 8e08 703f 5e92 c83f 0dc0 f23e a1f5 203d
000002b0: 08db 5c3f 8448 ee3f cb0c 613e 0941 0a3e
000002c0: 0631 253f 1689 2b3e 505d 4f3f 0276 9e3f
000002d0: c31e 3c3f dd6b 0740 8b9a f2bd ae52 a33e
000002e0: fe9e 153f 7ca8 09bf 7eae 24be b1d1 f8be
000002f0: 8d79 9f3d 1673 65bf 7925 9cbe d1da fb3e
00000300: 6d08 25bf 9141 aebe 0f2c 743f 4cd3 8a3f
00000310: b340 d03f 759a 823e 3db4 763f 5a80 533f
00000320: 823f 0cbf 9e4e 8c3f 1fec 0bbf 54bf e53f
00000330: b367 27bf 85b5 a73e 58ef 813f 5d84 943f
00000340: bc4f f7bc 0fed 1c3f ad31 24bf 74e7 be3d
00000350: 957f 08be 4c5f 153f bec4 78bf 05fc b1bf
00000360: a5aa bdbf 0a05 763e 0ced afbe 3cf5 74be
00000370: f8d9 00c0 bf29 3d40 338c 50c0 120b 04c0
00000380: 2707 37bf fc42 2fbf 1a16 b13e b828 5d3f
00000390: 4ef6 d63e 41bf 933f c82d 663f c13f 7fbe
000003a0: cd6f 393f 49d3 25bf 0c36 0b3f 8ef4 1abf
000003b0: 3f1c c73e d2f6 2fbf 60f6 aabf a8d3 bdbe
000003c0: a251 6d3f 22c1 f83f 0ef8 babe eca8 16be
000003d0: 7a7a 18bf 878c 7dbf f6d1 393f 4f83 06bf
000003e0: 9dc2 4a3e 7242 1e40 bb05 d9bd 0166 93be
000003f0: e9f3 bb3f 4115 86bf d465 1cc0 06a7 a83e

0_self_interaction_2.linear.weight f4 [1280]
-0.36636043 0.38879362 0.7334359 0.41662538 0.2445314 -0.3672015 -0.044641733 -0.7690073
0.104151264 -0.6053273 -0.30796054 -1.352554 -1.2826061 0.26371652 2.1128368 0.19303522
0.72350204 -0.37799197 0.5332626 -1.1372854 -0.8309288 0.5940249 0.43448904 1.260614
0.17016762 -1.2069697 0.21992621 -0.47797284 -0.022262353 1.496085 -0.80333966 2.197274
1.1480072 -0.1170178 3.7307687 1.9790739 0.4801345 -0.17461543 -0.2998861 0.49797574
-1.0194073 0.62569386 0.31756788 1.1709912 1.0425657 -0.87845933 -1.5000268 0.4730362
0.70484823 -1.6873239 -0.8597329 -0.4434891 3.0471287 0.5625898 0.94201756 -0.035063516
-1.8064897 -0.072311014 0.069979906 1.909271 0.9179579 -0.49556386 0.82817787 0.14441417
-0.25635934 0.8502991 0.878289 -0.98404896 0.051115144 -0.06855712 -3.4593265 0.09238645
-0.90446174 0.42976665 1.6575582 -0.6814616 1.2431568 -1.1784699 1.1890918 0.92565733
-0.69881344 -0.7032164 -1.5594432 -1.226558 -2.88619 -2.386442 1.627397 0.34349096
-0.6097405 1.0381137 0.4250219 -0.62067676 -2.5335393 1.8771281 0.21392055 0.39070025
-0.16609971 1.1727383 -1.2576956 -1.15769 0.628505 1.1929139 -3.4666488 -0.22157203
0.6915958 -1.690439 -1.3339016 -0.060840797 0.36580518 0.5559116 -1.23957 0.5666381
1.3382621 0.8383958 0.21723731 2.0762107 -2.2377722 -0.01694721 1.1693958 -2.0991588
-0.8221926 1.6208024 2.2373428 -0.8298417 0.24435759 0.65105075 0.1792264 1.1737468
-0.17228538 1.4009051 -0.49786758 -0.35617328 -2.1472769 -0.23627244 0.58632916 0.5851322
1.3009548 2.4675384 0.4807374 -1.1159465 0.3826662 2.5032663 0.3523099 2.095332
-0.007306466 1.1436152 -0.31003568 0.4421061 -1.5537621 -0.55026513 0.5832635 0.1311626
1.2797086 0.22215609 0.042972058 0.6122435 0.9452572 0.22294149 -0.0150825735 -1.1905242
-0.5899481 -0.02694552 0.75015205 0.48335332 1.7272369 2.0375953 1.2134246 -0.7425626
-1.4513226 0.31013453 -1.0852008 0.7526871 0.63322616 -0.023864564 1.3223978 0.2964482
1.193457 -1.6034896 0.023544362 -1.453855 1.2557584 1.6882473 0.4231659 1.0891014
-0.20898478 -0.07142894 0.026315553 -1.0404382 -0.8974674 0.52717227 1.0597836 -0.481879
-0.87622005 -1.3139751 -0.5239989 0.97813046 -1.5189441 0.46062052 0.29629168 -1.3169521
-0.34446108 -0.04072151 -2.0646734 -0.5803185 0.68080777 -0.27035475 -1.3101755 0.3462666
-1.2399879 -0.13017274 -0.40033802 -1.1503301 -0.48123997 0.30428436 1.159737 0.514672
0.8757996 -0.8849754 -1.7622449 -0.18532981 2.3697078 -0.06279449 -0.05223064 0.6296327
-3.540888 1.6715766 0.017679848 0.6836128 -1.2226665 -1.359413 0.1411516 0.7764861
-0.7180711 -0.89075303 0.5281958 -1.3372843 -0.44902945 -1.3802581 1.396262 -0.53604597
-1.5684118 -1.8235904 -0.6960886 -1.0502374 -0.32854 0.02033564 -1.9282119 0.7634836
-0.6545984 0.7325194 0.25115278 -0.6014676 0.21149193 -1.1647457 -1.202447 0.35919973
00000000: 9893 bbbe f50f c73e 75c2 3b3f ec4f d53e
00000010: 7066 7a3e d601 bcbe 40da 36bd aadd 44bf
00000020: 424d d53d bbf6 1abf 01ad 9dbe 7d20 adbf
00000030: 702c a4bf da05 873e b838 0740 06ab 453e
00000040: 6e37 393f 2a88 c1be e683 083f 9192 91bf
00000050: c0b7 54bf 0412 183f 5975 de3e cd5b a13f
00000060: 6c40 2e3e fc7d 9abf 5634 613e dbb8 f4be
00000070: 8a5f b6bc b77f bf3f aba7 4dbf 23a0 0c40
00000080: e6f1 923f 07a7 efbd eac4 6e40 4b52 fd3f
00000090: 30d4 f53e 63ce 32be ac8a 99be adf6 fe3e
000000a0: f07b 82bf 792d 203f 4298 a23e 0ae3 953f
000000b0: cb72 853f b6e2 60bf e100 c0bf cd31 f23e
000000c0: ef70 343f 3bfa d7bf 7517 5cbf 0111 e3be
000000d0: 2804 4340 e305 103f 1028 713f c39e 0fbd
000000e0: 0e3b e7bf cc17 94bd a051 8f3d fe62 f43f
000000f0: 4aff 6a3f 8cba fdbe 7703 543f 4fe1 133e
00000100: 8841 83be 34ad 593f 8cd7 603f a2ea 7bbf
00000110: 1d5e 513d ad67 8cbd 9b65 5dc0 1b35 bd3d
00000120: ce8a 67bf 600a dc3e de2a d43f 4474 2ebf
00000130: c31f 9f3f 1ad8 96bf 2934 983f e1f7 6c3f
00000140: 70e5 32bf fd05 34bf d69b c7bf daff 9cbf
00000150: 56b7 38c0 77bb 18c0 8b4e d03f 0cde af3e
00000160: f417 1cbf e9e0 843f 789c d93e ace4 1ebf
00000170: 8225 22c0 bc45 f03f fd0d 5b3e dd09 c83e
00000180: 0b16 2abe 4a1c 963f 2bfc a0bf 302f 94bf
00000190: b4e5 203f 67b1 983f 93dd 5dc0 c7e3 62be
000001a0: 6c0c 313f 4e60 d8bf 4abd aabf 3334 79bd
000001b0: d14a bb3e 3950 0e3f 3baa 9ebf 320f 113f
000001c0: 2c4c ab3f 1ba1 563f 7573 5e3e a3e0 0440
000001d0: a937 0fc0 e0d4 8abc c3ae 953f 9e58 06c0
000001e0: 377b 52bf 7476 cf3f a030 0f40 8170 54bf
000001f0: e038 7a3e 43ab 263f 2087 373e 563d 963f
00000200: 946b 30be dc50 b33f 80e8 febe 585c b6be
00000210: fc6c 09c0 67f1 71be ab19 163f 39cb 153f
00000220: b085 a63f 26ec 1d40 3623 f63e 56d7 8ebf
00000230: d3ec c33e 8435 2040 f761 b43e eb19 0640
00000240: 146b efbb fc61 923f ffbc 9ebe bb5b e23e
00000250: ade1 c6bf 2dde 0cbf c250 153f 7d4f 063e
00000260: 7ecd a33f e37c 633e 7803 303d fdbb 1c3f
00000270: 60fc 713f c64a 643e e61c 77bc 1963 98bf
00000280: d706 17bf dabc dcbc f709 403f 167a f73e
00000290: 1916 dd3f f667 0240 7f51 9b3f 9518 3ebf
000002a0: f0c4 b9bf f4c9 9e3e dce7 8abf 1ab0 403f
000002b0: 1c1b 223f 9e7f c3bc 5544 a93f 0fc8 973e
000002c0: 33c3 983f 263f cdbf 1be0 c03c ec17 babf
000002d0: b1bc a03f 7d18 d83f 33a9 d83e ad67 8b3f
000002e0: 1b00 56be 5649 92bd b793 d73c 142d 85bf
000002f0: 6cc0 65bf c3f4 063f fda6 873f d8b8 f6be
00000300: f54f 60bf 5630 a8bf cb24 06bf c266 7a3f
00000310: c36c c2bf 74d6 eb3e 8bb3 973e e391 a8bf
00000320: 345d b0be 99cb 26bd 9c23 04c0 c18f 14bf
00000330: 6b49 2e3f f06b 8abe d5b3 a7bf db49 b13e
00000340: ecb7 9ebf 014c 05be 1bf9 ccbe 043e 93bf
00000350: 1665 f6be 29cb 9b3e 4372 943f 8bc1 033f
00000360: 6734 603f bf8d 62bf 3e91 e1bf 19c7 3dbe
00000370: 4ba9 1740 669a 80bd ccef 55bd 9c2f 213f
00000380: e99d 62c0 39f6 d53f 54d5 903c 4001 2f3f
00000390: 5680 9cbf 3f01 aebf 0c8a 103e cbc7 463f
000003a0: 82d3 37bf 6408 64bf d737 073f 222c abbf
000003b0: 30e7 e5be 4cac b0bf b7b8 b23f 4f3a 09bf
000003c0: b8c1 c8bf 696b e9bf dd32 32bf 2e6e 86bf
000003d0: 6536 a8be ee96 a63c a6cf f6bf a973 433f
000003e0: c393 27bf 6486 3b3f 1997 803e c8f9 19bf
000003f0: 5791 583e 6316 95bf c9e9 99bf 07e9 b73e

0_self_interaction_2.linear.output_mask f4 [176]
1.0 1.0 1.0 1.0 1.0 1.0 1.0 1.0
1.0 1.0 1.0 1.0 1.0 1.0 1.0 1.0
1.0 1.0 1.0 1.0 1.0 1.0 1.0 1.0
1.0 1.0 1.0 1.0 1.0 1.0 1.0 1.0
1.0 1.0 1.0 1.0 1.0 1.0 1.0 1.0
1.0 1.0 1.0 1.0 1.0 1.0 1.0 1.0
1.0 1.0 1.0 1.0 1.0 1.0 1.0 1.0
1.0 1.0 1.0 1.0 1.0 1.0 1.0 1.0
1.0 1.0 1.0 1.0 1.0 1.0 1.0 1.0
1.0 1.0 1.0 1.0 1.0 1.0 1.0 1.0
1.0 1.0 1.0 1.0 1.0 1.0 1.0 1.0
1.0 1.0 1.0 1.0 1.0 1.0 1.0 1.0
1.0 1.0 1.0 1.0 1.0 1.0 1.0 1.0
1.0 1.0 1.0 1.0 1.0 1.0 1.0 1.0
1.0 1.0 1.0 1.0 1.0 1.0 1.0 1.0
1.0 1.0 1.0 1.0 1.0 1.0 1.0 1.0
1.0 1.0 1.0 1.0 1.0 1.0 1.0 1.0
1.0 1.0 1.0 1.0 1.0 1.0 1.0 1.0
1.0 1.0 1.0 1.0 1.0 1.0 1.0 1.0
1.0 1.0 1.0 1.0 1.0 1.0 1.0 1.0
1.0 1.0 1.0 1.0 1.0 1.0 1.0 1.0
1.0 1.0 1.0 1.0 1.0 1.0 1.0 1.0
00000000: 0000 803f 0000 803f 0000 803f 0000 803f
00000010: 0000 803f 0000 803f 0000 803f 0000 803f
00000020: 0000 803f 0000 803f 0000 803f 0000 803f
00000030: 0000 803f 0000 803f 0000 803f 0000 803f
00000040: 0000 803f 0000 803f 0000 803f 0000 803f
00000050: 0000 803f 0000 803f 0000 803f 0000 803f
00000060: 0000 803f 0000 803f 0000 803f 0000 803f
00000070: 0000 803f 0000 803f 0000 803f 0000 803f
00000080: 0000 803f 0000 803f 0000 803f 0000 803f
00000090: 0000 803f 0000 803f 0000 803f 0000 803f
000000a0: 0000 803f 0000 803f 0000 803f 0000 803f
000000b0: 0000 803f 0000 803f 0000 803f 0000 803f
000000c0: 0000 803f 0000 803f 0000 803f 0000 803f
000000d0: 0000 803f 0000 803f 0000 803f 0000 803f
000000e0: 0000 803f 0000 803f 0000 803f 0000 803f
000000f0: 0000 803f 0000 803f 0000 803f 0000 803f
00000100: 0000 803f 0000 803f 0000 803f 0000 803f
00000110: 0000 803f 0000 803f 0000 803f 0000 803f
00000120: 0000 803f 0000 803f 0000 803f 0000 803f
00000130: 0000 803f 0000 803f 0000 803f 0000 803f
00000140: 0000 803f 0000 803f 0000 803f 0000 803f
00000150: 0000 803f 0000 803f 0000 803f 0000 803f
00000160: 0000 803f 0000 803f 0000 803f 0000 803f
00000170: 0000 803f 0000 803f 0000 803f 0000 803f
00000180: 0000 803f 0000 803f 0000 803f 0000 803f
00000190: 0000 803f 0000 803f 0000 803f 0000 803f
000001a0: 0000 803f 0000 803f 0000 803f 0000 803f
000001b0: 0000 803f 0000 803f 0000 803f 0000 803f
000001c0: 0000 803f 0000 803f 0000 803f 0000 803f
000001d0: 0000 803f 0000 803f 0000 803f 0000 803f
000001e0: 0000 803f 0000 803f 0000 803f 0000 803f
000001f0: 0000 803f 0000 803f 0000 803f 0000 803f
00000200: 0000 803f 0000 803f 0000 803f 0000 803f
00000210: 0000 803f 0000 803f 0000 803f 0000 803f
00000220: 0000 803f 0000 803f 0000 803f 0000 803f
00000230: 0000 803f 0000 803f 0000 803f 0000 803f
00000240: 0000 803f 0000 803f 0000 803f 0000 803f
00000250: 0000 803f 0000 803f 0000 803f 0000 803f
00000260: 0000 803f 0000 803f 0000 803f 0000 803f
00000270: 0000 803f 0000 803f 0000 803f 0000 803f
00000280: 0000 803f 0000 803f 0000 803f 0000 803f
00000290: 0000 803f 0000 803f 0000 803f 0000 803f
000002a0: 0000 803f 0000 803f 0000 803f 0000 803f
000002b0: 0000 803f 0000 803f 0000 803f 0000 803f

0_equivariant_gate.gate.mul.output_mask f4 [128]
1.0 1.0 1.0 1.0 1.0 1.0 1.0 1.0
1.0 1.0 1.0 1.0 1.0 1.0 1.0 1.0
1.0 1.0 1.0 1.0 1.0 1.0 1.0 1.0
1.0 1.0 1.0 1.0 1.0 1.0 1.0 1.0
1.0 1.0 1.0 1.0 1.0 1.0 1.0 1.0
1.0 1.0 1.0 1.0 1.0 1.0 1.0 1.0
1.0 1.0 1.0 1.0 1.0 1.0 1.0 1.0
1.0 1.0 1.0 1.0 1.0 1.0 1.0 1.0
1.0 1.0 1.0 1.0 1.0 1.0 1.0 1.0
1.0 1.0 1.0 1.0 1.0 1.0 1.0 1.0
1.0 1.0 1.0 1.0 1.0 1.0 1.0 1.0
1.0 1.0 1.0 1.0 1.0 1.0 1.0 1.0
1.0 1.0 1.0 1.0 1.0 1.0 1.0 1.0
1.0 1.0 1.0 1.0 1.0 1.0 1.0 1.0
1.0 1.0 1.0 1.0 1.0 1.0 1.0 1.0
1.0 1.0 1.0 1.0 1.0 1.0 1.0 1.0
00000000: 0000 803f 0000 803f 0000 803f 0000 803f
00000010: 0000 803f 0000 803f 0000 803f 0000 803f
00000020: 0000 803f 0000 803f 0000 803f 0000 803f
00000030: 0000 803f 0000 803f 0000 803f 0000 803f
00000040: 0000 803f 0000 803f 0000 803f 0000 803f
00000050: 0000 803f 0000 803f 0000 803f 0000 803f
00000060: 0000 803f 0000 803f 0000 803f 0000 803f
00000070: 0000 803f 0000 803f 0000 803f 0000 803f
00000080: 0000 803f 0000 803f 0000 803f 0000 803f
00000090: 0000 803f 0000 803f 0000 803f 0000 803f
000000a0: 0000 803f 0000 803f 0000 803f 0000 803f
000000b0: 0000 803f 0000 803f 0000 803f 0000 803f
000000c0: 0000 803f 0000 803f 0000 803f 0000 803f
000000d0: 0000 803f 0000 803f 0000 803f 0000 803f
000000e0: 0000 803f 0000 803f 0000 803f 0000 803f
000000f0: 0000 803f 0000 803f 0000 803f 0000 803f
00000100: 0000 803f 0000 803f 0000 803f 0000 803f
00000110: 0000 803f 0000 803f 0000 803f 0000 803f
00000120: 0000 803f 0000 803f 0000 803f 0000 803f
00000130: 0000 803f 0000 803f 0000 803f 0000 803f
00000140: 0000 803f 0000 803f 0000 803f 0000 803f
00000150: 0000 803f 0000 803f 0000 803f 0000 803f
00000160: 0000 803f 0000 803f 0000 803f 0000 803f
00000170: 0000 803f 0000 803f 0000 803f 0000 803f
00000180: 0000 803f 0000 803f 0000 803f 0000 803f
00000190: 0000 803f 0000 803f 0000 803f 0000 803f
000001a0: 0000 803f 0000 803f 0000 803f 0000 803f
000001b0: 0000 803f 0000 803f 0000 803f 0000 803f
000001c0: 0000 803f 0000 803f 0000 803f 0000 803f
000001d0: 0000 803f 0000 803f 0000 803f 0000 803f
000001e0: 0000 803f 0000 803f 0000 803f 0000 803f
000001f0: 0000 803f 0000 803f 0000 803f 0000 803f
